…
500/500 [==============================] - 1s 2ms/step - loss: 0.3896 - accuracy: 0.8899
Epoch 9/10
500/500 [==============================] - 1s 2ms/step - loss: 0.3887 - accuracy: 0.8870
Epoch 10/10
500/500 [==============================] - 1s 2ms/step - loss: 0.3350 - accuracy: 0.9038
333/333 - 0s - loss: 0.4574 - accuracy: 0.8745

Activation: tanh None None

#8.

_________________________________________________________________
Model: "sequential"
_________________________________________________________________
Layer (type)                 Output Shape              Param #
=================================================================
conv2d (Conv2D)              (None, 30, 30, 32)        896
_________________________________________________________________
max_pooling2d (MaxPooling2D) (None, 15, 15, 32)        0
_________________________________________________________________
dense (Dense)                (None, 15, 15, 10)        330
_________________________________________________________________
dense_1 (Dense)              (None, 15, 15, 43)        473
_________________________________________________________________
flatten (Flatten)            (None, 9675)              0
_________________________________________________________________
dense_2 (Dense)              (None, 43)                416068
=================================================================
Total params: 417,767
Trainable params: 417,767
Non-trainable params: 0
_________________________________________________________________
Epoch 1/10
500/500 [==============================] - 7s 14ms/step - loss: 1.0759 - accuracy: 0.7190
Epoch 2/10
500/500 [==============================] - 8s 15ms/step - loss: 0.3351 - accuracy: 0.9152
…
500/500 [==============================] - 9s 18ms/step - loss: 0.0535 - accuracy: 0.9859
Epoch 9/10
500/500 [==============================] - 9s 18ms/step - loss: 0.0418 - accuracy: 0.9895
Epoch 10/10
500/500 [==============================] - 9s 18ms/step - loss: 0.0447 - accuracy: 0.9877
333/333 - 2s - loss: 0.2429 - accuracy: 0.9580

Conv2D Activation = tanh

#10.

_________________________________________________________________
Model: "sequential"
_________________________________________________________________
Layer (type)                 Output Shape              Param #
=================================================================
conv2d (Conv2D)              (None, 13, 13, 32)        2432
_________________________________________________________________
conv2d_1 (Conv2D)            (None, 13, 13, 32)        9248
_________________________________________________________________
max_pooling2d (MaxPooling2D) (None, 6, 6, 32)          0
_________________________________________________________________
dense (Dense)                (None, 6, 6, 43)          1419
_________________________________________________________________
flatten (Flatten)            (None, 1548)              0
_________________________________________________________________
dense_1 (Dense)              (None, 43)                66607
=================================================================
Total params: 79,706
Trainable params: 79,706
Non-trainable params: 0
_________________________________________________________________
Epoch 1/10
500/500 [==============================] - 6s 11ms/step - loss: 1.2031 - accuracy: 0.6816
Epoch 2/10
500/500 [==============================] - 6s 11ms/step - loss: 0.2172 - accuracy: 0.9426
…
500/500 [==============================] - 7s 13ms/step - loss: 0.0168 - accuracy: 0.9957
Epoch 9/10
500/500 [==============================] - 7s 13ms/step - loss: 0.0167 - accuracy: 0.9957
Epoch 10/10
500/500 [==============================] - 7s 13ms/step - loss: 0.0230 - accuracy: 0.9930
333/333 - 1s - loss: 0.0982 - accuracy: 0.9769

5 relu
3 tanh

#11.

_________________________________________________________________
Model: "sequential"
_________________________________________________________________
Layer (type)                 Output Shape              Param #
=================================================================
conv2d (Conv2D)              (None, 13, 13, 32)        2432
_________________________________________________________________
conv2d_1 (Conv2D)            (None, 13, 13, 32)        9248
_________________________________________________________________
max_pooling2d (MaxPooling2D) (None, 6, 6, 32)          0
_________________________________________________________________
dropout (Dropout)            (None, 6, 6, 32)          0
_________________________________________________________________
dense (Dense)                (None, 6, 6, 43)          1419
_________________________________________________________________
flatten (Flatten)            (None, 1548)              0
_________________________________________________________________
dense_1 (Dense)              (None, 43)                66607
=================================================================
Total params: 79,706
Trainable params: 79,706
Non-trainable params: 0
_________________________________________________________________
Epoch 1/10
500/500 [==============================] - 6s 12ms/step - loss: 1.3386 - accuracy: 0.6426
Epoch 2/10
500/500 [==============================] - 6s 12ms/step - loss: 0.2913 - accuracy: 0.9219
…
Epoch 8/10
500/500 [==============================] - 7s 13ms/step - loss: 0.0550 - accuracy: 0.9833
Epoch 9/10
500/500 [==============================] - 7s 13ms/step - loss: 0.0490 - accuracy: 0.9847
Epoch 10/10
500/500 [==============================] - 7s 13ms/step - loss: 0.0357 - accuracy: 0.9891
333/333 - 1s - loss: 0.0837 - accuracy: 0.9810

#12.

Model: "sequential"
_________________________________________________________________
Layer (type)                 Output Shape              Param #
=================================================================
conv2d (Conv2D)              (None, 13, 13, 32)        2432
_________________________________________________________________
conv2d_1 (Conv2D)            (None, 13, 13, 32)        9248
_________________________________________________________________
max_pooling2d (MaxPooling2D) (None, 6, 6, 32)          0
_________________________________________________________________
dropout (Dropout)            (None, 6, 6, 32)          0
_________________________________________________________________
conv2d_2 (Conv2D)            (None, 6, 6, 32)          9248
_________________________________________________________________
dense (Dense)                (None, 6, 6, 43)          1419
_________________________________________________________________
flatten (Flatten)            (None, 1548)              0
_________________________________________________________________
dense_1 (Dense)              (None, 43)                66607
=================================================================
Total params: 88,954
Trainable params: 88,954
Non-trainable params: 0
_________________________________________________________________
Epoch 1/10
500/500 [==============================] - 7s 14ms/step - loss: 1.2346 - accuracy: 0.6637
Epoch 2/10
500/500 [==============================] - 7s 14ms/step - loss: 0.2549 - accuracy: 0.9277
…
500/500 [==============================] - 8s 16ms/step - loss: 0.0415 - accuracy: 0.9868
Epoch 10/10
500/500 [==============================] - 8s 16ms/step - loss: 0.0441 - accuracy: 0.9859
333/333 - 2s - loss: 0.0831 - accuracy: 0.9806

Got rid of a layer. Got to 0.98 faster but with less leg room for improvement

#13.
_________________________________________________________________
Model: "sequential"
_________________________________________________________________
Layer (type)                 Output Shape              Param #
=================================================================
conv2d (Conv2D)              (None, 13, 13, 32)        2432
_________________________________________________________________
dense (Dense)                (None, 13, 13, 43)        1419
_________________________________________________________________
conv2d_1 (Conv2D)            (None, 13, 13, 32)        12416
_________________________________________________________________
max_pooling2d (MaxPooling2D) (None, 6, 6, 32)          0
_________________________________________________________________
dropout (Dropout)            (None, 6, 6, 32)          0
_________________________________________________________________
conv2d_2 (Conv2D)            (None, 6, 6, 32)          9248
_________________________________________________________________
dense_1 (Dense)              (None, 6, 6, 43)          1419
_________________________________________________________________
flatten (Flatten)            (None, 1548)              0
_________________________________________________________________
dense_2 (Dense)              (None, 43)                66607
=================================================================
Total params: 93,541
Trainable params: 93,541
Non-trainable params: 0
_________________________________________________________________
Epoch 1/10
500/500 [==============================] - 11s 21ms/step - loss: 1.1157 - accuracy: 0.6927
Epoch 2/10
500/500 [==============================] - 10s 21ms/step - loss: 0.2262 - accuracy: 0.9328
…
